Database/Tasks.pth (torch, 2823 bytes, 5 tensors)

l1.weight f4 [8, 9]
0	0x3d68dec0	0.056853056
1	0xbe3aaa56	-0.1822904
2	0x3e084110	0.1330607
3	0xbcc029d0	-0.023457438
4	0xbe9d245b	-0.306918
5	0xbc960e50	-0.018317372
6	0xbe245530	-0.16048121
7	0xbe92ff1f	-0.28710267
8	0x3e93767f	0.28801343
9	0xbe8faa9f	-0.2805986
10	0xbea0ba9a	-0.31392366
11	0xbd997f3c	-0.07494971
12	0xbc4065e0	-0.011743039
13	0x3e3accc6	0.18242177
14	0xbe032bc8	-0.1280967
15	0x3e70356e	0.23457882
16	0xbd5f7688	-0.0545564
17	0xbd0e2f58	-0.03471312
18	0xbe2057d8	-0.1565851
19	0x3c9bce10	0.019019157
20	0x3e2f461a	0.17116585
21	0x3d97c38c	0.074103445
22	0xbd2604c8	-0.040531904
23	0xbe8b036e	-0.27151054
24	0xbe1d6be6	-0.15373191
25	0x3e028878	0.12747371
26	0xbe66c6d6	-0.22536787
27	0x3e4ef252	0.20209625
28	0xbd0399b8	-0.03212902
29	0xbea4347b	-0.3207129
30	0xbe99f793	-0.30071697
31	0xbea52d27	-0.3226101
32	0xbccd7e10	-0.025084525
33	0x3eaa13ed	0.33218327
34	0xbe035768	-0.12826312
35	0x3d974bc0	0.07387495
36	0x3cff9700	0.031199932
37	0x3d5b9e58	0.053617805
38	0xbd877d00	-0.06615639
39	0xbe0fddb0	-0.14049411
40	0xbe3c48b6	-0.18387112
41	0xbe90a83a	-0.28253347
42	0x3e3a419e	0.18189093
43	0xbdfeae36	-0.12435572
44	0x3e8c6029	0.27417114
45	0x3d3f9d00	0.046780586
46	0xbe1c6490	-0.15272737
47	0xbc48c760	-0.012254566
48	0x3ea64707	0.32476065
49	0xbe69267b	-0.22768585
50	0xbde3c826	-0.1112216
51	0x3e83e4f1	0.25760606
52	0x3ce8c850	0.028415829
53	0x3d993ac4	0.07481912
54	0x3cec2a50	0.02882877
55	0x3e473912	0.19455364
56	0xbe015bf0	-0.12632728
57	0xbe47a933	-0.19498138
58	0xbe7a3498	-0.24434125
59	0xbdffd3c6	-0.124915645
60	0x3d9d8460	0.07691264
61	0x3e67e6aa	0.22646585
62	0x3e13fd08	0.14451993
63	0x3e9269c1	0.2859631
64	0xbd2e9f20	-0.042632222
65	0x3ea896e3	0.32927617
66	0xbcb1be30	-0.021697134
67	0x3e38e5d2	0.1805642
68	0x3cfe8710	0.031070262
69	0xbe28812e	-0.16455528
70	0xbe863fa6	-0.26220435
71	0x3d3b9d78	0.04580447

l1.bias f4 [8]
0	0xbe9dff30	-0.30858755
1	0x3e239db6	0.1597813
2	0xbdfede86	-0.12444787
3	0x3db88e40	0.09011507
4	0x3d96e860	0.07368541
5	0x3e075318	0.13215292
6	0xbe315336	-0.17316899
7	0xbe3ee160	-0.18640661

l2.weight f4 [8, 8]
0	0xbd1d5098	-0.03840694
1	0xbdc5799c	-0.09642336
2	0x3e5f58da	0.21811238
3	0xbea25134	-0.31702578
4	0x3da3d008	0.07998663
5	0x3e80ad21	0.25132087
6	0x3e460f92	0.19341877
7	0xbe8e460a	-0.2778781
8	0x3e04c42e	0.12965462
9	0x3eaf227d	0.34206
10	0xbce50fd0	-0.027961642
11	0x3e9eca29	0.3101361
12	0x3e1ea276	0.15491661
13	0x3eae14f1	0.34000352
14	0xbeb2f7e8	-0.34954762
15	0x3e0b0c3e	0.13578889
16	0x3e8b8c91	0.2725568
17	0x3db5f098	0.0888378
18	0xbeb4f2c1	-0.35341457
19	0x3d9a0798	0.0752098
20	0xbdbfbd24	-0.093622476
21	0x3e741c72	0.23838976
22	0x3dc29cb0	0.09502542
23	0xbe80bcf8	-0.25144172
24	0x3e5d3156	0.21600851
25	0x3dc407c8	0.09571797
26	0xbe664510	-0.22487283
27	0x3eb033d3	0.3441454
28	0xbda557d0	-0.080733895
29	0xbe0a21b7	-0.13489424
30	0x3d98f0ec	0.07467827
31	0x3e07a782	0.13247493
32	0x3e89cd33	0.26914367
33	0x3d5ba7a8	0.053626686
34	0xbe6de53a	-0.23231974
35	0x3e76e64a	0.24111286
36	0xbe7189c5	-0.23587711
37	0x3e8a05c5	0.26957527
38	0xbe05458f	-0.13014816
39	0xbe12cc02	-0.14335635
40	0xbd88ff88	-0.06689364
41	0x3e70bdc2	0.23509887
42	0x3daa1ad8	0.08305901
43	0xbde69dbc	-0.11260554
44	0xbe47d3d9	-0.19514407
45	0x3e44d7e2	0.19222978
46	0x3eb31b43	0.34981737
47	0x3d407698	0.0469881
48	0xbe75efe4	-0.24017292
49	0x3e605176	0.21906075
50	0xbbd3b640	-0.006460935
51	0xbcec0560	-0.028811157
52	0x3e84d133	0.25940856
53	0x3ea998cf	0.33124396
54	0x3eb0e5bb	0.3455027
55	0xbe416697	-0.18886791
56	0x3e9b23e3	0.30300817
57	0x3e606a0e	0.21915457
58	0xbd6af038	-0.057357997
59	0xbe27db58	-0.16392267
60	0xbe64a64a	-0.22329059
61	0x3e1b5d86	0.15172395
62	0xbe3718dc	-0.17880577
63	0x3e7b0bca	0.24516216

l2.bias f4 [8]
0	0xbe655d49	-0.22398867
1	0x3e9dde59	0.308337
2	0x3e1e5ef2	0.15465906
3	0xbd8fc684	-0.07020286
4	0x3e34ce46	0.17656812
5	0xbd584728	-0.052802235
6	0x3d2f7748	0.042838365
7	0x3e95e9db	0.2927998

l3.weight f4 [1, 8]
0	0x3da611d8	0.08108872
1	0xbdc2ad44	-0.09505704
2	0xbdac6758	-0.08418149
3	0xbe28a15b	-0.16467802
4	0xbea45e9a	-0.32103425
5	0x3ea2956b	0.31754622
6	0xbe90e9b6	-0.28303307
7	0xbe60c788	-0.21951115
